ocs2_mpcnet/ocs2_ballbot_mpcnet/policy/ballbot.onnx (onnx, 1156 bytes, 2 tensors)

linear.weight f4 [3, 10]
-0.21187909 3.9441245 7.6713386 -0.64639777 -29.495401 -0.25771818 5.6486063 2.5467722
-0.14904617 -6.5034285 -3.030855 -2.0227058 4.730429 -22.94889 14.714275 -4.2589793
-2.771544 1.4962423 -4.535794 3.2911398 3.4314163 -2.2594585 5.51378 25.617022
14.675674 5.0181727 -2.789733 2.0174708 5.6984353 2.8624637
00000000: d5f6 58be 896c 7c40 9b7b f540 537a 25bf
00000010: 95f6 ebc1 a3f3 83be 62c1 b440 51fe 2240
00000020: 8f9f 18be 161c d0c0 87f9 41c0 0374 01c0
00000030: ad5f 9740 5497 b7c1 ac6d 6b41 8f49 88c0
00000040: fa60 31c0 de84 bf3f 3925 91c0 09a2 5240
00000050: 539c 5b40 f89a 10c0 e370 b040 a9ef cc41
00000060: 90cf 6a41 df94 a040 fc8a 32c0 3e1e 0140
00000070: 9559 b640 9b32 3740

linear.bias f4 [3]
0.45226252 -0.5155299 0.21246043
00000000: f48e e73e c4f9 03bf 3a8f 593e
