ocs2_mpcnet/ocs2_legged_robot_mpcnet/policy/legged_robot.pt (torch, 41391 bytes, 18 tensors)

weight f4 [19, 36]
000000 bf e5 03 3e 71 31 e1 be 56 bf ce be 42 35 34 3d
       0.1288061 -0.43983033 -0.40380353 0.043996103
000010 9b 8a bc 3d 60 8b b3 be 15 f9 1a bf af f8 70 3e
       0.092061244 -0.35067272 -0.6053632 0.23532365
000020 b6 9b e6 3c 91 6b b0 be 16 77 e0 be 87 d4 7f 3e
       0.02815042 -0.34457067 -0.43840855 0.24983416
000030 3d 96 9b bc bf 84 95 bb 71 24 83 bb af 2f e2 bd
       -0.018992538 -0.0045629437 -0.004002147 -0.11044251
000040 a6 74 75 bb 3b b5 92 3d 4f aa 12 3e 90 4a 10 3e
       -0.003745356 0.07163473 0.1432278 0.14090943
000050 24 7a 6c 3e 2b d8 c0 3d 8c c7 82 be 88 fd 83 be
       0.23093468 0.09416231 -0.25542867 -0.25779366
000060 18 74 b1 ba 07 61 8a 3e 92 33 93 be 5a 29 94 3c
       -0.0013538627 0.2702715 -0.28750283 0.018086124
000070 9f 1b b0 3d cd 5a 69 3d 1c c1 9f 3d 7f 99 3c 3d
       0.08599018 0.05697136 0.078005046 0.046044823
000080 fe e4 9b 3e 50 0b ed 3d 3b 40 87 be 03 04 05 3e
       0.30448145 0.11574423 -0.2641619 0.12989812
000090 e6 c2 a6 3e 1c d1 75 bd 88 5f 88 be 02 91 ef 3e
       0.3257057 -0.060013875 -0.26635385 0.4679032
0000a0 09 fc 19 3f 9f d2 2e be 98 9c 8e be ab 9c f5 3e
       0.601502 -0.17072533 -0.27853847 0.4797109
0000b0 1d 1e 46 3e 85 ee 61 3c 9f 60 f4 3c a5 e2 7e 3e
       0.19347425 0.013789778 0.029831229 0.24891146
0000c0 cb c1 07 be 47 88 02 3e b4 ab a2 3c 96 fa 5d be
       -0.1325752 0.12747298 0.019857265 -0.21677622
0000d0 5a fb 62 3e 90 f3 c0 3c 5f 8c d0 bd 2b ed b3 be
       0.22166196 0.02355364 -0.10183024 -0.35141882
0000e0 90 86 b4 be 62 e4 37 be 7b ad 80 3e 6b 0e ae 3e
       -0.35258913 -0.17958215 0.25132355 0.33995375
0000f0 0e db 28 3e 2c e6 0c be d3 c5 19 3d 2d 11 e5 3c
       0.16489813 -0.13759679 0.037542176 0.027962292
000100 8e dd c5 3e 9d ba b7 be b4 b5 dc 3e 88 8c 41 be
       0.38645595 -0.35884562 0.43107378 -0.18901265
000110 c1 aa 44 be c0 2f 42 3e 32 19 7c be 3a cf 61 3e
       -0.19205762 0.18963528 -0.24618986 0.22051707
000120 96 39 af be 10 36 12 bd 1b 07 84 be ae 62 7c be
       -0.34223622 -0.03569609 -0.2578667 -0.24647018
000130 b1 59 b5 be 33 62 e4 be 90 c6 cf be 64 d7 fc be
       -0.35419992 -0.4460617 -0.4058118 -0.4938308
000140 3e c5 b2 be 1b 58 5d be b1 d4 73 be e5 a8 33 be
       -0.3491611 -0.21615641 -0.23811604 -0.17544897
000150 eb 44 dd 3d 4d ba 20 3d ed 14 c7 bd da b2 88 3e
       0.10804161 0.03924017 -0.09720788 0.26698953
000160 c5 be 90 3d af e4 a7 3d 0d 20 1f 3e 6a 2f ab 3d
       0.070676364 0.08197915 0.1553957 0.08358653
000170 b3 66 93 3e 4e 38 d1 3e 20 56 80 be 95 69 da bd
       0.2878929 0.4086327 -0.25065708 -0.106646694
000180 8e 08 af bd 60 8d 19 3e ff 27 cf 3d 24 97 ad bd
       -0.085465536 0.14995337 0.101150505 -0.084760934
000190 cd 3b 07 3e 7c 01 ee 3d 67 af d3 3d a0 a2 c2 3e
       0.13206406 0.11621377 0.1033619 0.38014698
0001a0 23 29 a9 bd 5a aa 08 be 39 d2 83 3d e9 92 ad 3c
       -0.08259799 -0.13346234 0.06436581 0.021188216
0001b0 5f 42 f8 3d 50 b7 71 be 73 17 9d be cf 85 57 3e
       0.12122034 -0.23605084 -0.30681953 0.21047138
0001c0 e9 5a 9d 3e 7e d6 04 bf f0 76 10 bf 46 8c fb 3c
       0.3073342 -0.5188979 -0.56431484 0.030706536
0001d0 a5 b6 1c 3d 81 5c 2c be 05 89 ab be 16 d2 41 3e
       0.03826012 -0.16832162 -0.33502975 0.18927798
0001e0 de 2e b4 bc af 96 44 bb be 3f d5 bc 92 29 ee bd
       -0.021995004 -0.002999704 -0.026031371 -0.11629023
0001f0 ea 21 38 3c bd 32 b0 3e 13 97 ee 3d a8 46 4a 3d
       0.0112385545 0.3441371 0.11649909 0.04938379
000200 15 fa f9 3e 78 e5 0c 3d 5c b7 9b be 66 61 50 be
       0.4882361 0.034398526 -0.3041333 -0.20349655
000210 9e 2f 4b 3e cb 38 f7 3e eb b2 9c be 81 6f 16 3c
       0.19842383 0.48285517 -0.30605254 0.009181858
000220 de 3b 56 3d 0e 30 74 bd dd 93 06 be 22 7e 20 be
       0.052303188 -0.05961614 -0.13142343 -0.15673116
000230 1d b2 6a 3e 37 4c 42 bd 60 14 81 3c 6e 3e 92 3d
       0.22919507 -0.047435965 0.015756786 0.07140814
000240 f5 fc ff 3d 6e e1 ca be 2d 97 e2 be 54 62 c2 3d
       0.124994196 -0.39625114 -0.44255963 0.09491411
000250 51 3c 2e 3e 8e 18 21 bf 5d fb 1a bf 56 e2 1e 3e
       0.17015196 -0.6292809 -0.605398 0.15516028
000260 f0 0f 20 3e 69 cb a9 be ed 2c 90 be 86 23 4e bc
       0.1563108 -0.33163002 -0.28159276 -0.012581712
000270 ba ec 41 bd 39 62 b6 3d c2 cb d4 be 6c e1 bc 3d
       -0.0473449 0.08905453 -0.41561705 0.09222683
000280 c1 fd d7 bd 9c 7f 89 3e 61 77 ed 3e 3b 7e dd 3c
       -0.105464466 0.2685517 0.4638014 0.02703773
000290 e3 a6 f1 3e 9d a6 f7 3e cc 4c 0d bf cc ee 10 be
       0.47197637 0.48369303 -0.5519531 -0.14153594
0002a0 0b 38 dc 3d 42 fa a9 3e c2 c7 16 3e 15 2b 16 3e
       0.10752877 0.33198744 0.14724639 0.14664872
0002b0 be c7 8f 3e fa 4f ee bd 87 7c 3f be 8f 09 97 3e
       0.2808208 -0.11636348 -0.18699847 0.2949948
0002c0 75 a0 88 3e 0e b6 39 be 90 61 f8 bd 2d 33 a9 3d
       0.2668492 -0.18135855 -0.121279836 0.08261714
0002d0 40 b5 b4 be 50 f4 d2 3e 5f 19 2e 3e 1b 0b 4f be
       -0.35294533 0.4120202 0.17001866 -0.2021908
0002e0 ca f5 0e bf 83 b3 6b 3e dd ba 8f 3e dc 2b 05 bf
       -0.55843794 0.23017697 0.28072253 -0.5202005
0002f0 7b 02 f2 be 13 fc 95 3e ee 9f a4 3e 1b b1 81 be
       -0.47267517 0.2929388 0.32153267 -0.25330433
000300 1b 7a 3a 3e 6d e8 d4 bd f9 e8 87 be 33 7f 7a 3d
       0.18210642 -0.10395894 -0.26544932 0.061156463
000310 17 bd 0e 3d 8d 20 09 3d 54 c3 53 3e 37 4e c0 bd
       0.0348483 0.03347831 0.2067998 -0.09389918
000320 d9 2b 91 3e 03 2d 83 3e 11 6c be be 85 bc 87 be
       0.28353766 0.2562028 -0.37191823 -0.26511016
000330 89 27 92 bd 99 06 30 bd 13 79 09 3e fa a6 3d 3e
       -0.07136447 -0.042975042 0.13425092 0.18520728
000340 e8 e3 ea 3d 3b 7d a3 bc d3 86 13 be cd df cd 3e
       0.11469251 -0.019957175 -0.144069 0.4020981
000350 22 77 bf 3d 92 c0 5c bd 3c ba 3e bc 71 74 d8 bd
       0.09348895 -0.053894587 -0.011641081 -0.105690844
000360 2a 44 b1 3e 66 ca 79 3d ba f2 5b be 97 92 69 3e
       0.34622318 0.060984038 -0.21479312 0.22809826
000370 d9 e0 2b 3f dc 15 f5 3d 23 64 c0 bd 75 4d ef 3e
       0.67139965 0.1196706 -0.093940996 0.46738783
000380 54 98 b0 3e 59 66 09 be 88 46 d2 bd 28 1b 96 3e
       0.34491217 -0.13417949 -0.10267359 0.29317594
000390 03 89 2b bd 43 3b 09 bd 0b 27 e0 3d 02 dc 6f be
       -0.04187871 -0.033503782 0.10944947 -0.2342377
0003a0 c7 3a 92 bd c9 c5 8f be f7 19 b3 be e8 03 1b 3e
       -0.07140117 -0.28080586 -0.34980747 0.15138209
0003b0 fd 3e fc be 6e 5a c9 be 52 f2 aa 3e 5c 2d e3 3d
       -0.49266806 -0.39326805 0.33388 0.11092636
0003c0 04 c3 76 3c d8 6d 6b 3b 7e 02 99 be 30 09 a6 bd
       0.015061144 0.0035923626 -0.29884714 -0.08107221
0003d0 f0 4b a2 bd c1 a5 5b bd bc 3e 36 3d a1 8c 2b be
       -0.0792464 -0.053624872 0.044493422 -0.16752864
0003e0 73 10 4e 3d 6f 35 41 bd 8d 32 49 3e 85 d0 d1 3d
       0.050308656 -0.0471701 0.1964819 0.1024485
0003f0 55 b3 c5 3c 7f 5b eb 3e 0a 55 a9 3e e9 8b 7b be
       0.024133364 0.45968243 0.33072692 -0.2456509

bias f4 [19]
000000 41 cb 7b 3f f4 01 8a bf 00 1e 70 3f 3e 51 8b 3f
       0.98357016 -1.0781846 0.93795776 1.0884168
000010 15 d5 9b 3f 49 a6 81 3f 36 68 a3 bf a0 58 b4 bf
       1.2174402 1.0128871 -1.2766178 -1.4089546
000020 ae 90 87 3f 99 24 88 bf 10 1d 87 bf 6e 14 a1 3f
       1.0591028 -1.0636169 -1.0555744 1.258436
000030 19 89 c9 be 81 34 b3 3f e0 9c 5b 3f f4 b0 1a bf
       -0.3936241 1.4000398 0.8578625 -0.6042626
000040 28 30 6c bf ed 00 69 bf 35 d6 87 bf
       -0.9226098 -0.9101704 -1.0612246

weight f4 [3, 19]
000000 a2 b1 34 3f 68 03 e4 bf a8 bd ae 3f 3e 49 43 3f
       0.70583546 -1.781354 1.3651628 0.76283634
000010 63 7d 11 3f a4 dc 15 3f 17 4c a6 bf 21 4d 38 bf
       0.5683195 0.58539796 -1.2991971 -0.7199269
000020 95 07 d4 3f 45 0b e4 bf 4d d7 c7 bf be 89 3a 3f
       1.6564814 -1.7815939 -1.561258 0.7286643
000030 b3 20 13 3e f2 53 2f 3f 9b e5 00 40 b9 d3 07 bf
       0.14367943 0.68487465 2.014014 -0.5305744
000040 5c 97 13 bf c9 88 12 bf 5a 71 03 c0 61 24 25 3f
       -0.5765283 -0.5723997 -2.0537934 0.64508635
000050 1d 73 e0 3f 8c 91 5b bf 40 7b ce 3e d8 c5 ff 3c
       1.753513 -0.8576896 0.40328407 0.031222269
000060 29 73 ba bf d4 cb 13 40 0a c3 c7 bd 56 65 65 bf
       -1.4566394 2.3093157 -0.097539976 -0.8960775
000070 4d 94 57 3f 83 8b 17 3f 97 a6 e0 3e b3 3f d3 3f
       0.84210664 0.59197253 0.43877098 1.6503814
000080 ce e4 22 be f7 f1 bc be 31 17 a3 3f 10 eb 99 3f
       -0.15907595 -0.36903355 1.2741452 1.202486
000090 99 62 e0 3f 53 66 4a 3f 9c e1 b9 bf 22 61 d4 be
       1.753009 0.79062384 -1.4521976 -0.41480356
0000a0 a6 fe 12 bf ed 43 c5 bf 38 07 ae bf 70 4d df 3e
       -0.5741981 -1.5411354 -1.3595953 0.43613768
0000b0 6b a4 2f 3f 0f 1b 17 40 52 15 74 bf fc 7b 83 3e
       0.68610257 2.3610265 -0.9534503 0.2568053
0000c0 5d 8a 33 3f bb 25 00 c0 47 e5 67 bf 91 42 1c c0
       0.70133 -2.002303 -0.90584224 -2.441563
0000d0 66 be 3e bf 6c 42 87 bf cb 04 23 bf da 1e 46 bf
       -0.74509275 -1.0567145 -0.6367919 -0.77390826
0000e0 e9 2b 2e 3f
       0.6803575

bias f4 [3]
000000 60 d4 8c 3c 85 52 97 bf a5 3f 50 bf
       0.017191112 -1.1822058 -0.81347114

weight f4 [30, 36]
000000 81 67 6e 3d 77 02 5d 3e 6a 76 4c 3d 98 8f 8d bd
       0.058204178 0.21582972 0.049917616 -0.06912154
000010 64 f4 c5 3d 3f b9 36 3e ad 8f e1 bc ab 9e 01 be
       0.096657544 0.17844103 -0.02753433 -0.12658183
000020 da eb da bd e4 ff 2f 3e 2a 75 ca 3d a7 37 ff bd
       -0.10689516 0.17187458 0.098856285 -0.12461787
000030 f4 df 55 bf 0d ea 98 3f ce 6f f5 be e8 a1 2a c0
       -0.8354485 1.1946427 -0.47936863 -2.666132
000040 01 bd 97 3f a6 51 77 3f d6 b4 98 bf 90 6b 62 3f
       1.1854554 0.9660896 -1.1930187 0.8844538
000050 c8 94 b8 3d 27 9a 1e bf e7 00 af 3e 84 76 be be
       0.09012753 -0.6195397 0.34180376 -0.37199795
000060 73 42 9c 3e 64 e8 7c 3e da 48 15 be fe 21 6c be
       0.30519447 0.24698025 -0.14578572 -0.23059842
000070 1f 19 70 bc 81 ed d2 bd 44 4e 1d be 61 2e 39 3d
       -0.014654427 -0.102992065 -0.15361887 0.045210246
000080 d9 34 99 be 44 4c 93 3d 88 38 a1 3e 53 29 7d bd
       -0.29923132 0.07192281 0.31488442 -0.061806988
000090 37 13 9c bd 48 b2 f0 3d 26 22 55 3d c9 aa 38 be
       -0.076208524 0.117527544 0.05203452 -0.180339
0000a0 7d 69 8d 3d 07 32 61 3d 36 3e 8e bd 55 e1 34 3d
       0.06904886 0.05497935 -0.069454595 0.044160206
0000b0 5b d1 a0 3d 80 a9 8d bd c8 1c 44 bd f0 ef 93 3d
       0.078524314 -0.06917095 -0.04787901 0.07223499
0000c0 45 fd 36 bd 0f 86 8a bf 87 ac b4 be 03 1f a6 3d
       -0.04467513 -1.0822161 -0.35287878 0.08111384
0000d0 03 2e 07 bd d1 88 8f 3f 7b 7d d4 3d 0f 57 9f bf
       -0.033002865 1.1213628 0.10375496 -1.2448443
0000e0 64 09 e2 3d 36 9e 2a 3f c0 a7 1d bf 93 6b 9d 40
       0.11036947 0.6664766 -0.6158409 4.9193816
0000f0 95 58 96 be 60 2e c2 be f7 32 7b 3e f1 5e a9 3c
       -0.29364458 -0.37926006 0.2453116 0.020675154
000100 2d fe d3 3d e9 fd 8f be 9f 69 29 be 76 38 bb 3e
       0.103512146 -0.28123406 -0.16544197 0.36566514
000110 3a 0e 60 bd 58 53 13 3e dd 37 d0 be b0 15 25 3d
       -0.054701068 0.14387262 -0.4066762 0.040303886
000120 40 ee e4 3d c9 0e 72 ba 0f bb 29 3e 36 96 2a 3d
       0.11178255 -0.00092337705 0.16575263 0.04164716
000130 38 3b 4c be 20 47 d8 3c d4 cb 1c 3e 18 4b 11 bd
       -0.19944465 0.026401103 0.1531213 -0.035472006
000140 e3 1a a5 bd 4b 7a 65 3e 3c b0 10 3e 1c ad a7 bd
       -0.08061769 0.22409932 0.14129728 -0.08187315
000150 6b 40 ce bd 8f 74 91 3d 0e af 82 3f 7d 08 bf be
       -0.100708805 0.0710231 1.0209672 -0.37311164
000160 b4 70 34 c0 fd df 8a 3f 2a c4 1b 3f 2d 9a a9 3e
       -2.8193789 1.0849606 0.608462 0.3312544
000170 aa 12 7d 3d a1 bc e0 3e 8d 14 01 3e ec 6c fc be
       0.061785378 0.43893912 0.12605496 -0.4930185
000180 4b 80 dc 3d 73 84 1b 3e 4b 6f 07 3d da 29 a4 3e
       0.107666574 0.15187244 0.03306512 0.3206318
000190 c0 2a 69 3e 02 56 57 be 82 9b 12 3e 67 b4 47 be
       0.22770214 -0.21028903 0.14317134 -0.19502412
0001a0 2b 41 86 bd e7 f7 81 3e 1e 43 85 3e e5 b1 cb 3d
       -0.065553986 0.25384447 0.2602777 0.0994604
0001b0 13 70 58 3d 8f 4a 55 3d 5b 9c b0 bd 42 3a a5 bd
       0.052841257 0.052073058 -0.086235724 -0.080677524
0001c0 b5 d9 00 be 78 91 b2 bd 05 77 0a be fe 7b dc bd
       -0.12583049 -0.08719152 -0.13521965 -0.10765837
0001d0 95 87 c4 3c 5e 19 e3 3d 85 42 2d be b9 01 eb 3d
       0.023990432 0.11088823 -0.16919906 0.11474938
0001e0 10 c6 24 bf 2e 5e 96 3e b6 1f 8d be 69 89 fb bf
       -0.6436472 0.29368728 -0.27563256 -1.9651309
0001f0 8e d9 52 3f 14 35 0b be 78 83 c0 bf ed 9e 88 3d
       0.8236321 -0.13594466 -1.5040121 0.06670938
000200 94 2f 1a be aa 3e 0e 3f 0e b6 6a bf 88 74 81 be
       -0.15057212 0.5556437 -0.91684043 -0.2528422
000210 dc 52 94 be 0a ea b6 be b3 80 12 3e 62 ca c2 be
       -0.28969467 -0.35725433 0.14306907 -0.3804503
000220 eb 97 05 3e 7c bc 28 be be 1f 14 bf c0 ee a5 bd
       0.13046233 -0.16478151 -0.57860935 -0.081021786
000230 70 43 93 3e 6e b0 e8 be 08 f3 6f be 1c 25 6e be
       0.28762388 -0.45447105 -0.23432553 -0.23256344
000240 15 da 90 3d 62 fc 07 bd 72 4f 74 3e e8 73 f2 3c
       0.07072846 -0.033199675 0.23858431 0.029596284
000250 8e 98 32 be 9d 3b 8f bb 0f 57 cc 3d 40 cd 06 be
       -0.17441007 -0.00437112 0.099775426 -0.13164234
000260 46 0e 76 3d 92 fd 75 3d cc 27 73 3d 59 a4 80 3c
       0.060072206 0.060056277 0.059364125 0.015703367
000270 3c 94 ad bd a8 05 80 bf c6 a4 11 bf 2f fc 9e c0
       -0.08475539 -1.0001726 -0.5689205 -4.968284
000280 54 0c 9b bf 9d bc 92 bf cb c5 58 3e 46 4a 52 bf
       -1.2113137 -1.146381 0.21169202 -0.8214458
000290 92 59 0a bf 85 0a 65 3e 52 8d bb 3e 29 ce 60 3f
       -0.54042923 0.22367294 0.36631256 0.87814575
0002a0 b0 50 ba be 2a 8f 22 bd fc ef c2 be 0f da 42 be
       -0.36389685 -0.039687313 -0.3807372 -0.19028495
0002b0 ec 64 00 be f2 62 ad 3d 1c 4f bc bd bb 8e ff 3e
       -0.12538499 0.08466138 -0.091947764 0.49913582
0002c0 de 69 9b bd 9d 38 c7 3c ae 04 b8 be 69 3f dd bc
       -0.07588552 0.024318988 -0.3594107 -0.027007775
0002d0 89 3d 16 3e 1c 37 1a be a0 f4 96 3d 3a 5c d1 3d
       0.14671911 -0.15060085 0.07370877 0.10222669
0002e0 bf f7 25 3e 44 1f 3a bd 41 3f 59 be 66 c1 b2 bd
       0.16207789 -0.045439973 -0.21215536 -0.08728294
0002f0 4b 68 1e bd a4 6d 49 bd 68 45 d0 bb 3f cb 34 bc
       -0.03867368 -0.049176827 -0.00635593 -0.011034786
000300 52 65 c9 3e 8b 8d 3b bf f4 7a c7 bd 2d 09 d8 be
       0.39335114 -0.7326285 -0.09740248 -0.421945
000310 c4 5f 04 c0 0f d1 42 bf 24 16 87 bf c5 1e 63 bf
       -2.068345 -0.7610025 -1.0553632 -0.88718826
000320 ae 6d 45 bf c1 34 05 3e fb b4 e3 be dc a6 a9 3b
       -0.7712048 0.13008405 -0.44474015 0.005177362
000330 bf 67 77 3e ad 34 f0 be f3 cd 37 3e c0 20 b2 bd
       0.2416067 -0.46915188 0.17949657 -0.08697653
000340 78 d5 ef bc b6 d8 17 3e 26 3b 22 be 5b 0e 33 3d
       -0.029276595 0.14828762 -0.15842876 0.043714862
000350 cf 37 95 3e 1d 92 42 3d 0e 33 a6 3d f3 46 cf bd
       0.2914414 0.047502626 0.08115207 -0.10120954
000360 32 d6 a6 bd 4c c4 97 3c 57 a2 0e 3d da e0 da 3b
       -0.08146323 0.018526219 0.034822788 0.0066796364
000370 07 c1 01 3e 18 f8 c6 bd d4 a7 d5 bd 3a 56 6c bd
       0.1267129 -0.09715289 -0.10432401 -0.05769942
000380 44 5d c7 3d cd c3 b7 bd bf 1b 38 3d 70 28 66 3d
       0.09734586 -0.08972893 0.044948336 0.056190908
000390 ba 26 fb 3d 2e 19 99 3b b6 31 70 bf b6 76 16 40
       0.12263246 0.004672191 -0.9382585 2.3509955
0003a0 9a a8 02 bf 4f 39 a9 3e cf b1 71 3f a4 c9 a5 3f
       -0.51038516 0.33051535 0.9441194 1.2952161
0003b0 ba c7 08 bf ae cb 6f 3e 99 fe 67 3f 96 04 7c be
       -0.5342976 0.23417541 0.9062286 -0.24611124
0003c0 b3 62 f7 be 3e 48 72 3f 6f 6a c2 3d 68 4d c4 be
       -0.4831749 0.9464148 0.09492957 -0.38340306
0003d0 1c e6 25 3d af 0e 28 bf 6c 80 59 be 66 a5 32 3f
       0.040502653 -0.65647405 -0.21240395 0.6978363
0003e0 25 06 a2 be 2b a9 8f 3d d6 7c 52 bf 02 68 8b 3e
       -0.31645313 0.07014688 -0.82221735 0.2722779
0003f0 1c 04 1e bd 3d e6 13 be df eb 65 be 41 bc b1 bd
       -0.038578138 -0.14443298 -0.22453259 -0.08678485

bias f4 [30]
000000 21 b2 64 bc 71 6d 4a bc 01 35 84 bc 2b 1c 09 bf
       -0.013958485 -0.012355194 -0.016138555 -0.53558606
000010 04 b7 5b 3d 67 7e a6 3c a1 ee c7 3e 2c 75 59 be
       0.053641334 0.020323945 0.39049247 -0.21236104
000020 36 f5 66 3e 87 76 20 3f 21 8f 9f bb ad 06 4d 3f
       0.22554478 0.6268086 -0.004869357 0.8008831
000030 d4 bb 18 3b bc c6 eb bc 79 e1 7d be e4 d1 e4 3c
       0.0023305314 -0.028781287 -0.24793042 0.027932115
000040 8f 36 35 3d 5e de 8c 3e c2 e8 f2 be 59 00 67 be
       0.044241484 0.27513403 -0.47443205 -0.22558726
000050 e5 0b 62 3d fd 22 1f bf 94 5c a1 bc ad 56 4c bf
       0.055187125 -0.6216276 -0.019697465 -0.79819757
000060 90 59 e6 3e a9 78 27 3f 1c 27 69 3c 43 33 26 3d
       0.44990206 0.6541849 0.014230516 0.04057623
000070 f6 ba 82 3f 62 80 b4 3d
       1.0213306 0.088135496

weight f4 [24, 30]
000000 05 d9 b2 3e ae ab c2 3d 53 92 77 bd 06 07 84 bd
       0.34931198 0.095054016 -0.06044228 -0.06446652
000010 9b d1 b1 be f7 58 1c be 7e 92 9a 3e 7b 25 96 3e
       -0.3473023 -0.15268312 0.3018989 0.2932547
000020 9f 27 6a bd 63 e0 ad 3d 93 db 0b bd d4 17 90 3d
       -0.057166692 0.08490064 -0.03414495 0.07035795
000030 be bf b6 3c 1d 10 86 3d 0c 5d 24 3e e4 b7 a0 3e
       0.022308227 0.06546042 0.1605112 0.31390297
000040 7c 93 37 3e b2 a7 12 be de 94 72 3d 4d d1 40 bf
       0.17927355 -0.14321783 0.059224002 -0.7531937
000050 51 a6 10 be 48 b2 e1 3d d8 8f ad 3d de d8 1e 3c
       -0.14125945 0.110203326 0.08474702 0.00969526
000060 50 71 b3 bd 01 45 d2 3e 39 e2 8e 3e 1d db 7a 3e
       -0.08761847 0.4106827 0.2790697 0.24497648
000070 4c bb 5e be d9 b6 89 be 37 91 9b bc c4 b7 99 3e
       -0.21751136 -0.26897314 -0.018990142 0.30023015
000080 72 a7 1b bf ca f0 39 be 5d ee b8 3e 0d 9d 23 be
       -0.60802376 -0.1815826 0.36119357 -0.15977879
000090 50 14 10 bf 16 8f b3 be 3e 36 b8 bd 35 24 81 be
       -0.56280994 -0.35070103 -0.08994721 -0.25222936
0000a0 93 dc 69 be 45 7c 09 3e 3a bc 94 be 27 bc b6 3e
       -0.22838049 0.13426311 -0.29049855 0.35690424
0000b0 6f 09 0f 3e 6c 32 2e be 8e 8e 59 be 1a 43 80 3e
       0.13968442 -0.17011422 -0.21245787 0.25051194
0000c0 39 f6 27 3f ae 20 e9 3e 0d 9e 7e be 72 05 cc 3e
       0.6561008 0.45532745 -0.24864979 0.39847904
0000d0 88 5a a2 3e ae f8 41 bf 1d 46 12 3e 76 d9 0f 3d
       0.31709695 -0.7577008 0.14284559 0.035119496
0000e0 73 81 a2 3e 2c fd 87 3f f1 b3 a5 3e 25 a5 af bb
       0.31739387 1.0624137 0.32363847 -0.005360263
0000f0 fa 5f 0e 3f fb 2d 88 bf da c7 13 bf 1a 67 48 bd
       0.556152 -1.0639032 -0.57726824 -0.04892645
000100 67 9b 50 3f 03 cd 64 be 4b f6 b5 be d6 7f 43 be
       0.81487125 -0.22343831 -0.3553947 -0.19091734
000110 1a 93 0f 3e c6 e8 23 3f 1f 78 04 bf f3 54 30 bf
       0.14020959 0.6402706 -0.5174579 -0.6887962
000120 1e ef d8 be 76 64 04 bf de 5c 40 bf ca e3 41 3f
       -0.42369932 -0.5171579 -0.75141704 0.75738204
000130 84 69 bc 3e 75 9f 9c be d0 d9 7d bf 9d 6a 83 3e
       0.36799252 -0.30590406 -0.9916048 0.25667277
000140 5e eb 2f 3f 82 dc 23 be 7e f1 cc 3e 80 84 e8 be
       0.68718517 -0.16002086 0.40027994 -0.4541359
000150 85 25 4e 3f 83 4d df be d7 d4 73 3e 5c 5f aa be
       0.80526 -0.43613824 0.2381166 -0.33275878
000160 e5 84 64 be e1 03 4a 3e 92 12 ab 3e 4a 23 fd 3d
       -0.2231632 0.19728042 0.33412606 0.123602465
000170 56 80 a4 be a8 a9 36 be c7 87 24 bd 99 36 85 bd
       -0.32129163 -0.17838156 -0.04016855 -0.06504554
000180 f7 9e 14 3e 91 9f 79 3d 8d 9f c0 bd 7a a3 b3 3d
       0.14513765 0.06094319 -0.09405432 0.08771415
000190 20 7c 2a 3e 58 fc 0a 3e 05 15 d6 be f9 71 f2 3e
       0.16648912 0.13572824 -0.41812912 0.4735258
0001a0 2a 6a 14 3c c4 be f8 bc 53 0d 0e 3e f8 b5 80 bd
       0.009058515 -0.030364402 0.1387227 -0.06284708
0001b0 41 ad 56 3e 87 2d f8 be 62 07 03 be 2c 85 99 be
       0.20964529 -0.48472235 -0.12795785 -0.29984415
0001c0 9e d4 ba 3e f8 9d 21 3e e6 f9 da bd a8 81 b4 3d
       0.3649034 0.15782917 -0.106921956 0.088137925
0001d0 e5 0a f8 bd 93 e6 16 3e 5d 81 f0 bd eb f7 7c be
       -0.12111453 0.14736395 -0.11743424 -0.24703948
0001e0 f2 7a d9 3c 70 f3 c0 3e 92 1d 6e be 6c 6f 54 bf
       0.026547883 0.37685728 -0.23253468 -0.82982516
0001f0 ca 10 c2 be 35 31 5d 3e fc 6d a1 bc c8 cd 98 bf
       -0.37903434 0.21600802 -0.019705765 -1.19378
000200 f3 dd b3 be 16 d7 97 bb 35 6f b7 be 26 14 ec 3d
       -0.3513027 -0.0046337945 -0.35827032 0.115272805
000210 d3 64 48 3e ed 6b 4e 3f 84 0c ca be 72 5f 8d 3e
       0.19569711 0.8063343 -0.39462674 0.27611881
000220 ec 9c 70 3e 90 38 e0 3e f4 e6 b6 be 58 70 4d 3d
       0.23497361 0.43793154 -0.35723078 0.050155967
000230 af 09 16 bd 8d 6f 3e 3f 91 29 f3 3d 1b 2d d3 3e
       -0.03663033 0.74388963 0.118731625 0.4124535
000240 e3 e3 4f be 18 83 9d be c4 1e 90 be 6a 82 13 3f
       -0.20301776 -0.3076408 -0.28148472 0.5762087
000250 77 b1 3d be 5f c5 8c bd b4 2b bc 3e ac ab 38 3f
       -0.18524729 -0.06873583 0.36752093 0.7213695
000260 ad 11 36 be df 58 1f bf e2 7a 96 bd e0 7c 08 3e
       -0.1778018 -0.6224498 -0.07347657 0.13328886
000270 c6 46 c3 3e fe d7 ce bc be 45 53 3f dc 6b 2d bf
       0.38139933 -0.025249477 0.82528293 -0.67742705
000280 64 2c 3d 3f 1a c3 a6 be ac 87 fe be 9a 1f 5c be
       0.7389586 -0.32570726 -0.49712884 -0.2149643
000290 d2 d1 d7 be c8 d7 6b 3c 09 fb 05 3f 86 f3 0a 3f
       -0.42152268 0.014394708 0.52336174 0.5427784
0002a0 a7 29 82 bc af 66 96 be 6f e5 bd be 0e 2d 11 3f
       -0.015889002 -0.29375216 -0.37089106 0.56709373
0002b0 5f 61 15 3e 43 f9 32 3e 73 01 e6 3e be a4 ff bd
       0.14587925 0.17477898 0.4492298 -0.12482594
0002c0 5f 4c f8 3e dc 3c 3b bf 62 87 75 3f 70 20 23 3f
       0.48495767 -0.7313974 0.959097 0.6372137
0002d0 88 30 e6 3e 76 a6 09 3e be 0e 57 3d 19 9a e8 bd
       0.449589 0.13442406 0.052504294 -0.11357517
0002e0 c7 88 a0 be 17 b5 09 be 3e 03 87 3e e4 15 0d 3e
       -0.31354353 -0.13447987 0.2636966 0.13777882
0002f0 4b 9e 1c be c6 06 fa 3d 64 c0 69 3d 67 d1 b5 3d
       -0.15294759 0.12208323 0.057068244 0.08877831
000300 63 b5 43 3e bc 6d 51 3e 9c 3b 9a 3e 40 b9 88 3e
       0.19112162 0.20452017 0.30123603 0.26703835
000310 88 29 b3 3d 2e f0 9e be 30 7e 56 3d 70 98 44 bf
       0.08748156 -0.31042618 0.052366436 -0.767951
000320 e0 e9 d6 bd 3c 29 1a 3e 09 b8 b7 3d 76 2a e8 3a
       -0.10493827 0.15054792 0.08970649 0.001771285
000330 20 e1 87 bd ca 4a b5 3e 38 c4 d5 3e d5 83 a7 3d
       -0.06634736 0.35408622 0.41751266 0.08179442
000340 03 01 68 be 77 a6 82 be 2d 77 b7 3d 14 3b c4 3e
       -0.22656636 -0.25517628 0.08958278 0.38326323
000350 04 07 9a 3e 2b ab 1e 3f 38 14 da 3e 93 20 5a be
       0.30083477 0.6197993 0.4259355 -0.21301489
000360 19 c1 5c be 43 9d eb 3e 70 e5 c7 be 3b 25 8e be
       -0.21558036 0.4601842 -0.39042234 -0.2776278
000370 bf 39 0c bf bc 2d ad 3e 54 b3 9d be b7 b9 0b 3e
       -0.54775614 0.33823955 -0.3080088 0.13645063
000380 3d f3 47 3e dc 8c b2 bc af eb da 3e 60 36 99 bd
       0.19526382 -0.021795683 0.42757937 -0.07481074
000390 80 34 f1 3e 87 3a 65 3d 7b a2 f5 bd 51 09 70 be
       0.47110367 0.05596402 -0.11993881 -0.23441054
0003a0 3c dc 3e 3e d4 50 cb bd 51 a6 e8 3e e0 cd 60 be
       0.186387 -0.09927526 0.4543939 -0.21953535
0003b0 9a d2 b7 3e 3a 3e 7d 3f 05 b4 19 3f 42 d8 2d 3f
       0.35902864 0.98923075 0.60040313 0.6790811
0003c0 df 21 2e be 29 29 3a bf 0f 43 14 bf 72 6a 05 bd
       -0.17005108 -0.72719055 -0.57914823 -0.032572217
0003d0 26 0a d0 3e 54 9f ff 3d ec 31 63 3e f8 f5 03 bf
       0.40632743 0.12481561 0.22187012 -0.51547194
0003e0 b4 8f 49 bf cc a0 6d 3f 35 25 6c bf 10 37 8b 3e
       -0.787349 0.9282348 -0.92244273 0.27190447
0003f0 8c e8 55 be 01 8c 0b bf 59 75 08 bf 78 1a 01 3f
       -0.20889491 -0.54510504 -0.5330406 0.50431013

bias f4 [24]
000000 a8 99 25 be 44 84 2d be 64 83 f4 3e cd 43 3e be
       -0.16171896 -0.16944987 0.47756493 -0.18580551
000010 f1 86 ca 3d 37 26 e9 3e b3 c2 b0 bd 30 a9 5d bd
       0.09889019 0.45536968 -0.08630886 -0.054116428
000020 3c c7 54 3e 88 72 5f bc 36 f1 74 3e 74 50 85 3e
       0.20779127 -0.013638146 0.2392014 0.26037943
000030 01 18 14 bd 5a 5c 20 bd db 6b 8c 3d cb 15 c5 bc
       -0.036155704 -0.039150573 0.06856509 -0.024058243
000040 2b 39 ab 3c 64 fc 18 3c 4f 26 5a bd 29 4a 30 bd
       0.020901283 0.009337518 -0.05325919 -0.043039475
000050 2a be 8e 3d da ed f0 bc 89 19 29 bd 8b 22 7b 3d
       0.06969865 -0.029410291 -0.041284118 0.06131224

weight f4 [30, 36]
000000 03 6a 70 3f fe 0e c9 3d b1 fc bb 3d 92 78 42 3f
       0.9391176 0.09817313 0.091790564 0.75965226
000010 83 a3 b7 be e5 69 8c 3d ab 77 ee 3d c1 b6 97 be
       -0.35866937 0.06856135 0.116439186 -0.29631618
000020 16 80 83 be 99 77 a2 3d ed 19 0a 3e b7 cf e1 be
       -0.2568366 0.07932968 0.13486452 -0.44103786
000030 cf 16 61 bf 12 4e 06 be e5 49 cd 3e dd f7 1e 3e
       -0.8792543 -0.13115719 0.4009544 0.1552424
000040 e7 d0 eb bf d6 e6 f8 3e 83 52 c7 bd 4c 39 1a 3d
       -1.8423127 0.48613614 -0.09732535 0.0376523
000050 a7 95 81 3f 0f cc c6 be bb ae ff bf bc b9 37 3e
       1.0123795 -0.3882756 -1.9975199 0.17941946
000060 d9 e6 02 bd 10 19 5d bf 71 cd ee be 21 9d e5 be
       -0.031958435 -0.8636637 -0.46641114 -0.44846442
000070 76 d8 55 3e c0 ba 1c 3d 3a 02 78 be ef e3 44 bd
       0.20883355 0.038264036 -0.242196 -0.048068937
000080 72 48 09 3e de 52 db 3b 06 f4 a6 bf 7f 05 1b bf
       0.13406542 0.006693228 -1.304322 -0.6055526
000090 49 f5 63 be 12 19 43 3d ad 59 79 3d f6 79 49 be
       -0.22261538 0.04763133 0.060876537 -0.1967543
0000a0 70 bf ed 3d 76 99 02 3e e4 a1 4e 3e f7 ec dd 3c
       0.116087794 0.12753853 0.20178944 0.027090533
0000b0 50 1e c7 3d ce 26 d1 3d 0b cd 28 3e db af 31 be
       0.097225785 0.102124795 0.16484468 -0.1735224
0000c0 fa b2 00 bf 17 91 aa 3e 6c 45 1a bf 18 e7 e6 3f
       -0.50273097 0.3331382 -0.6026218 1.8039274
0000d0 a3 80 2f bf 87 33 d3 3f fd 20 78 be e0 83 a4 bb
       -0.6855566 1.65001 -0.24231334 -0.0050206035
0000e0 df 31 20 3f c2 3a 90 be 69 6a 50 3e ce 1e 8b bf
       0.625761 -0.2816983 0.20353092 -1.0868776
0000f0 fe 4a 81 3d 5c d3 a2 3e 70 01 15 bb d4 7d 1b bf
       0.06313132 0.3180188 -0.0022736453 -0.60738873
000100 c7 57 a1 bb eb d5 81 be a0 61 0c be 93 29 08 bf
       -0.004923794 -0.2535852 -0.13709116 -0.5318844
000110 5a e4 b4 bd 23 b0 fc 3c 26 5b ac be 70 67 a1 3d
       -0.08832617 0.030845707 -0.3366329 0.07881057
000120 22 11 68 3e 9b 78 07 3e b0 36 14 bd 0c 4b 97 3e
       0.22662786 0.13229601 -0.036184967 0.29549444
000130 fb 5e bf 3c d5 f5 0f 3d 3a 5a 49 3e 05 34 37 3d
       0.02336072 0.035146553 0.19663325 0.044727344
000140 82 12 5f 3e 3e 15 4a 3e a3 24 ed 3d 7a 5f 53 3e
       0.21784404 0.19734666 0.115792535 0.2064189
000150 97 35 42 3d cb ad 3b 3e 48 53 2b 3e 28 96 2e bf
       0.04741439 0.18328016 0.16730988 -0.6819787
000160 76 de 1c c0 97 b5 b8 be cb 2b 9f 3b 22 dd 53 3f
       -2.451078 -0.36076042 0.0048575155 0.82759297
000170 10 fc 13 3f e5 0d 73 be 2b 91 0a 3f 26 94 28 3f
       0.5780649 -0.23735769 0.5412776 0.65851057
000180 01 fb 0c 3f 7f 2b 9a 3e b4 e3 e7 bd ed a6 57 3e
       0.550705 0.3011131 -0.11322728 0.21059771
000190 4e 09 4a bd a9 e6 16 3e 8a e3 34 bf a9 c4 4e 3f
       -0.04932528 0.14736427 -0.706597 0.8076883
0001a0 43 e0 08 3f af f6 04 3e 7e 67 d8 3d 78 9b 0b bf
       0.53467196 0.12984727 0.105666146 -0.545341
0001b0 82 b2 40 3f c4 92 a5 bd 21 c5 cc 3b 71 1e 2f 3f
       0.7527238 -0.08084634 0.0062490855 0.68405825
0001c0 bf 54 75 be 71 f0 86 3c 1a ed 13 bd c0 07 42 be
       -0.2395811 0.016472073 -0.03611479 -0.18948269
0001d0 76 61 0c be f8 77 11 be 8a e3 21 be 43 16 b1 be
       -0.13709053 -0.1420592 -0.15809456 -0.34587297
0001e0 1b b5 c4 3e 7c cf 64 3e 05 0c d8 3e d2 05 1d c0
       0.38419423 0.22344774 0.4219667 -2.4534802
0001f0 15 41 c4 3f 2d 7d 58 3f 7a 45 11 3e 97 e5 ce bd
       1.5332361 0.84566003 0.1418666 -0.101023845
000200 01 20 4e 3f 80 ef 16 be cc 3d 95 3f 0a 0e 10 bf
       0.80517584 -0.147398 1.1659484 -0.5627142
000210 90 90 0b bf 8b f2 96 3f 43 df 0d 3f 40 42 e8 be
       -0.5451746 1.1792768 0.55418795 -0.45363045
000220 07 fc 88 3c 3e 17 73 3d 78 d2 53 be 6b 16 14 be
       0.016721739 0.059348337 -0.20685756 -0.14461677
000230 bb 4a 9d 3d a0 41 28 bf 85 3f 37 3f 32 22 b0 3e
       0.07680269 -0.65725136 0.715813 0.3440109
000240 1e 85 72 3d 41 82 a8 bd d2 3c 18 3e 7c 25 ac 3e
       0.05920898 -0.08227969 0.14866951 0.33622348
000250 2b 92 71 be 3b 92 fc 3d 6f 1d 2a 3e 36 fa 46 3c
       -0.23590915 0.12332579 0.1661279 0.012144616
000260 e7 af 12 be ff ad d2 3d 36 9c 4a bd 81 46 b9 3d
       -0.14324914 0.10287093 -0.04946538 0.09046651
000270 f4 40 58 3c 3c b9 92 3f e2 4f 98 be bf 6a 76 3f
       0.01319908 1.1462779 -0.29748446 0.9625663
000280 bc a6 77 be a9 95 3a c0 4e 3f 00 3f cb 2f 47 3f
       -0.24184698 -2.9153845 0.50096595 0.778073
000290 6a 32 1a bf 17 db e1 be 94 66 2e bf c5 f3 58 bf
       -0.60233176 -0.44112465 -0.6812527 -0.8474696
0002a0 c3 7c 89 bf 3e fd 98 be ef 27 39 3e d4 4c 2c 3f
       -1.0741199 -0.29880708 0.1808164 0.6730473
0002b0 55 d9 d7 3c 3b 0d 93 bd 85 3b ad 3e 03 ea bb 3d
       0.02634875 -0.07180258 0.33834472 0.091754936
0002c0 41 fa 5f bd 7b 0f d3 bf 23 85 e1 be b8 48 cd 3d
       -0.05468202 -1.6489099 -0.44046888 0.100236356
0002d0 dd e4 d8 3e eb 59 8c 3c 45 02 54 bc be 55 01 3f
       0.4236211 0.01713272 -0.012939994 0.5052146
0002e0 dc b5 b6 bc 5d d0 8d 3d fd 8f e8 3d 32 8c 0c be
       -0.022303514 0.06924508 0.113555886 -0.13725355
0002f0 6a bc b2 3d 91 2a f8 3c 35 0a f9 bc d2 cf c7 3d
       0.087273434 0.030293735 -0.030400375 0.097564355
000300 4a f9 0e bd 14 49 a3 3e 74 2f 1c 3f 7b 3b af 40
       -0.03490571 0.31891692 0.6100991 5.476011
000310 b9 89 fb 3f 19 e8 ab bf 40 fc d5 be 3c e6 61 3f
       1.9651405 -1.3430206 -0.41794014 0.88241935
000320 dd 0e 22 3f 2a db ae 3c 05 06 50 bd 1c f9 04 3f
       0.6330393 0.02134474 -0.05078699 0.5194261
000330 2c 67 0f bf 86 2f 26 bf 84 0b 69 3e 60 f8 2e 3f
       -0.560168 -0.64916265 0.22758299 0.6834774
000340 6a f0 58 3f f8 57 9b be f1 61 fa 3e c4 f1 71 be
       0.8474184 -0.30340552 0.48902848 -0.23627383
000350 7f dd c8 3e 86 cf 0d bf f0 fd 28 3f 98 2d 05 bf
       0.39231488 -0.5539478 0.6601248 -0.52022696
000360 23 c5 77 3d e6 67 00 be c0 64 ba 3d c0 f4 45 3d
       0.06049074 -0.12539634 0.09101248 0.048329115
000370 57 55 b8 bd e8 e3 44 be 03 d0 ac 3d b4 27 ec bc
       -0.09000652 -0.19227564 0.084381126 -0.028827526
000380 03 e6 03 be 98 a8 1c be a2 a0 15 bd af de 25 3e
       -0.12880711 -0.15298688 -0.036530145 0.16198228
000390 9e 28 69 3f 56 4a b2 bf 9d 5e ab bd f4 9c 16 c0
       0.910776 -1.3928936 -0.083676554 -2.3533297
0003a0 9a 7e 8e 3d 04 25 d1 3f 2f 9c e5 3f e8 d1 0a c0
       0.06957741 1.6339421 1.7938288 -2.1690617
0003b0 6a 17 60 3e d7 92 25 3f 99 f6 d5 3e 8f df b1 3f
       0.21883932 0.64677185 0.41789702 1.389635
0003c0 54 0e 40 3b 17 a1 99 3d 7a d6 b3 3e e6 90 79 3f
       0.0029305415 0.075014286 0.3512457 0.9748672
0003d0 de ee 6d 3e 02 9f 2a 3e 13 5f 52 3f 63 da 7e be
       0.23235652 0.16662219 0.8217632 -0.24887995
0003e0 38 d4 0f 3f eb cc ca 3e 7b 0a 00 3d 70 9f 05 3f
       0.56183195 0.39609465 0.031259995 0.5219641
0003f0 f3 10 fc 3e 5b de 53 bd f8 c3 9c bd 24 7b fd 3e
       0.4923168 -0.051725727 -0.076545656 0.4950801

bias f4 [30]
000000 bb b1 24 be 8b ce fd 3c ee 7c 82 ba 55 fd f6 be
       -0.16083424 0.030982276 -0.0009955445 -0.48240152
000010 a3 39 87 3e fa 99 9a bb 6a d4 53 3e a8 1b b0 be
       0.2641116 -0.0047180625 0.20686498 -0.343961
000020 0b 16 4f be fb ac b6 3d 79 85 ba 3e 70 d7 96 bd
       -0.20223252 0.08919712 0.36429957 -0.0736531
000030 2d 87 b6 bd 10 c7 5a 3e 8d 4a 01 be ac d2 e5 bd
       -0.089125015 0.21364999 -0.12626095 -0.11221823
000040 5f bf f5 3c 75 f1 8d bd b8 16 28 3e 21 30 8c be
       0.02999848 -0.0693082 0.16414917 -0.2738047
000050 57 f7 f3 3a bb ea df be 24 f7 06 bc 55 05 5c 3e
       0.0018613142 -0.43733773 -0.008237634 0.21486409
000060 a6 7e ea bd 8c 97 64 3d 34 74 2f 3d 82 a0 ae 3d
       -0.114499375 0.05580859 0.04283543 0.08526708
000070 a6 08 f4 3d 18 79 7d 3e
       0.11915712 0.24753225

weight f4 [24, 30]
000000 34 b1 8b 3b a2 07 03 3b 4e 79 07 3b dc 57 08 bb
       0.0042630676 0.0019993563 0.0020671668 -0.0020804321
000010 b2 7f b0 3a 4f 7f 9e b9 c6 93 df b9 b4 53 d7 bb
       0.001346579 -0.0003023096 -0.00042643974 -0.0065712575
000020 35 8d 10 3b 7b 7a 92 ba 30 54 9a ba 67 67 2c bb
       0.0022056822 -0.0011175418 -0.0011774357 -0.002630675
000030 14 2a 5d bb 75 84 d9 bb dd 41 86 3a 0b 9b 9e 3a
       -0.0033747004 -0.0066381046 0.0010243017 0.001210065
000040 a0 f7 74 3b f1 6d 1b ba 41 02 3b ba 6d bf 0c 3b
       0.0037379041 -0.00059291633 -0.000713382 0.0021476403
000050 02 cf bc ba 85 82 13 3a e9 06 1c 3a a9 c0 1c 3a
       -0.0014404955 0.0005627054 0.00059519574 0.00059796363
000060 67 d8 80 3b df 56 43 3a 92 7b 71 ba 14 70 1f bb
       0.003932047 0.00074516045 -0.0009211834 -0.0024328278
000070 4f c7 1e ba d2 1c 00 3b ac 3b 37 bb b9 6b c5 3b
       -0.0006056921 0.0019548428 -0.0027959151 0.0060248044
000080 62 27 bf 3b 59 ee 9d 3b 99 64 25 3a 87 8b 1d bb
       0.005833552 0.004819673 0.00063092407 -0.0024039464
000090 83 a6 8e 3b 4a fd ed ba c2 25 9e 3a 09 33 d0 3a
       0.004353346 -0.0018157151 0.0012065696 0.001588435
0000a0 32 72 07 3b a3 02 d9 3a f7 22 73 bb c2 3c ef bb
       0.002066743 0.0016556572 -0.0037099698 -0.007300944
0000b0 d9 8b 3e 3b 09 b2 1b 3a 13 34 0c 3c 90 39 f6 bb
       0.0029075055 0.000593931 0.008557337 -0.007514186
0000c0 64 ab d2 3a 26 82 da bb a2 fd 9c bb 51 14 53 bb
       0.0016072807 -0.006668347 -0.0047909776 -0.0032208154
0000d0 c9 5e 6f 38 d6 46 be 39 eb fc a2 3b 96 13 e8 3a
       5.7070316e-05 0.000362924 0.004973998 0.0017706032
0000e0 69 0c 1c 3b 98 08 d6 39 da b3 e7 3a f5 b7 c0 3b
       0.0023811108 0.00040823664 0.0017677501 0.0058813044
0000f0 60 94 fd ba 74 bc cb bb e4 53 a3 bb aa 48 ce b9
       -0.0019346587 -0.0062175337 -0.004984366 -0.0003934552
000100 ef 62 9c 3b 9b 2b 09 ba f0 a8 a4 ba 1f 70 8a bb
       0.004772536 -0.0005232633 -0.0012562554 -0.0042247917
000110 f2 a2 a7 ba c3 8a ce ba 2c 24 49 bb ff d1 55 3b
       -0.001278965 -0.0015757907 -0.0030691726 0.0032626388
000120 4a 6e f4 3a 53 a1 a2 b9 b2 81 92 bb a6 f6 8d bb
       0.0018648591 -0.00031019244 -0.0044710273 -0.0043323813
000130 8a ef fd b9 02 ee 36 3c 76 11 db bb b2 e9 ac 3b
       -0.0004843439 0.011165144 -0.006685431 0.005276882
000140 80 1d ae 3b 13 70 88 3b 96 ad 9f bb 37 0c bb bb
       0.0053135753 0.004163751 -0.004872988 -0.005708243
000150 b4 5c fc 39 f1 fd 35 b9 7e 18 be 3a 66 cb e7 3a
       0.00048134255 -0.00017356106 0.0014503149 0.0017684519
000160 f3 45 ee bb 2b b1 f4 ba 46 4e 9c 3d 63 7c 0c be
       -0.007271522 -0.0018668523 0.07632117 -0.13719325
000170 63 6d 38 bf 58 2f f7 3e 5c 79 0d be 85 cb c7 3e
       -0.7204191 0.48278308 -0.13815826 0.3902246
000180 17 05 3c bf da ea b2 be 8d 86 24 3e 90 c5 2d be
       -0.73445266 -0.34944803 0.16066952 -0.16969895
000190 b2 a0 c7 3e 99 ff e3 3e 2e e4 9e 3b bd ef d2 3e
       0.38989788 0.44530943 0.0048489785 0.4119853
0001a0 0f 66 20 3f c2 6e ec 3e d1 ec ce bd ab 3c f4 bd
       0.6265573 0.46178252 -0.10103763 -0.11925634
0001b0 88 fc 3a 3f 02 07 6c be 0d 50 74 3e 66 91 92 3c
       0.7304158 -0.23049548 0.23858662 0.017891597
0001c0 00 e7 fd bd 42 06 08 3f 42 2c ae be aa ce 44 bf
       -0.123975754 0.5313455 -0.3401814 -0.76877844
0001d0 25 62 fb be 9a cf ef bd 94 90 09 3e f9 c6 ec be
       -0.49098316 -0.11709519 0.13434058 -0.46245554
0001e0 b4 8c 22 be 88 a2 f0 bd 4b 8e bc 3e 8f 5e 72 3d
       -0.15873986 -0.117497504 0.3682731 0.05917221
0001f0 06 fe b6 3e 2a 7d cb bd 73 ae c6 3e 90 56 30 3f
       0.3574068 -0.099359825 0.3880497 0.68882084
000200 d6 f4 42 bf 2d 12 f1 bd bb 26 0f 3f 57 f8 40 3f
       -0.7615484 -0.11771045 0.55918473 0.75378937
000210 3f 93 5b be 01 08 92 3f 8d ea 83 3f 8b f8 97 be
       -0.21442889 1.1408693 1.0305954 -0.2968181
000220 cd ed bd bd d6 80 88 3d 91 0c 87 3e 3e 3c 82 bf
       -0.092738725 0.066651985 0.26376775 -1.0174634
000230 53 6f ac be a4 67 06 3e 4c 42 c1 3e e8 f5 c7 be
       -0.33678684 0.13125473 0.37745893 -0.390548
000240 c9 2c 80 3d 09 e7 29 bf 14 55 7c 3e 71 96 0e 3f
       0.06258542 -0.66368157 0.2464183 0.55698305
000250 dc 3a 03 bf 30 0d a4 be 22 8c c0 be 28 bc 4b 3f
       -0.5126169 -0.3204131 -0.37606913 0.7958398
000260 cb 01 e7 3e 3f a2 03 3e ad 08 62 be 1a 9c 6c 3e
       0.45118555 0.1285486 -0.22073622 0.23106423
000270 43 2c 8b 3f f8 da 69 bf 10 b6 87 be e3 e3 99 be
       1.0872883 -0.91349745 -0.2650609 -0.30056676
000280 9c f3 17 3f c1 24 a7 be 40 80 41 bf 84 1a 65 bf
       0.59356093 -0.32645229 -0.7558632 -0.89493585
000290 b4 5f 64 3e ce 37 4e bf de 41 06 3f d4 59 d6 be
       0.22302133 -0.805539 0.52444255 -0.41865408
0002a0 9a ae 28 3f 5e 8c 9b 3e dd 4f 0a 3f 26 0f bb bd
       0.6589142 0.3038053 0.5402811 -0.09133749
0002b0 67 af 9f be e1 20 59 be b2 44 1a bf f3 56 0c bf
       -0.3118851 -0.21203949 -0.6026107 -0.54820174
0002c0 48 67 22 3f c8 4f e9 bf b5 1e 9a 3f 34 4a ae bf
       0.63438845 -1.8227472 1.2040621 -1.3616395
0002d0 8f d1 ca be a7 d9 d4 be 82 2b 24 bf 44 cc b2 3d
       -0.39613006 -0.41572306 -0.6412889 0.08730367
0002e0 d3 5d 36 bf fb 9d 20 be a5 45 fa be d4 04 e4 3e
       -0.71236914 -0.15685265 -0.4888126 0.44534934
0002f0 8b 24 73 be 2a cc 50 bf 18 95 ca 3e ca 16 1c 3f
       -0.23744409 -0.8156153 0.39566875 0.60972273
000300 c7 98 46 bf 92 20 f3 3d e8 14 27 3f 52 99 c0 3e
       -0.7757687 0.11871447 0.65266275 0.37616974
000310 9d d3 f2 bd 0e 38 d4 3d 9b 51 0e be f6 aa 02 3f
       -0.11856768 0.10362254 -0.13898318 0.51042116
000320 f3 ed 1b 3f b7 62 63 be 51 ca 1f bf 6e 40 72 be
       0.60909957 -0.22205625 -0.62418085 -0.2365739
000330 bc ab 08 be 8d 5a 04 bf b5 6e 2d be ba 09 b0 be
       -0.13346761 -0.5170067 -0.16936763 -0.3438242
000340 16 70 24 be 95 d2 aa be 8e 83 7a 3d 10 95 e8 3c
       -0.16058382 -0.33363786 0.061160617 0.028391391
000350 3a f5 78 bd 8c 32 c6 3e 37 39 b2 3d 13 03 35 be
       -0.06078074 0.3871044 0.08702319 -0.17676954
000360 b0 ba 13 3f e2 de d4 3e c6 48 e7 be 9e 5d 3f 3f
       0.5770674 0.41576296 -0.4517271 0.74752223
000370 91 dd 7a 3e 21 a9 60 3f ae 0e 0f 3f 1a 52 91 3f
       0.24498583 0.8775807 0.55881774 1.135318
000380 b5 66 4d 3f 51 e2 fc bd be 36 6a be 8c 01 47 3f
       0.80234843 -0.12347854 -0.22872445 0.77736735
000390 cb 7a b1 3c 2a 44 be 3e 54 b0 24 be e1 6e d5 3e
       0.021664998 0.3716138 -0.16082889 0.41686156
0003a0 29 ca 0f 3e 1a a4 54 3e 5f e3 f4 be 8e 0a 39 bf
       0.14041962 0.20765725 -0.4782972 -0.7228173
0003b0 de 93 ad 3e 75 42 70 3f 2c ed 2f 3f 95 c9 6a 3e
       0.33901876 0.93851405 0.6872127 0.2292846
0003c0 16 20 dd 3e cf 04 92 3a 23 b6 91 3e 5b 66 3b bf
       0.43188542 0.0011140349 0.28459272 -0.7320306
0003d0 3e 38 a4 3f cc 4e 3f bf d8 13 18 bf 49 a8 78 3f
       1.2829664 -0.7472961 -0.5940528 0.9713178
0003e0 d7 e9 5f bf bc a5 3f be c3 3d 63 3f 1b 14 7a bf
       -0.87466186 -0.18715566 0.88766116 -0.9768693
0003f0 28 a4 4d bf 88 a6 6b 3e 44 dd df be 8d bd 3c 3f
       -0.8032861 0.23012745 -0.437235 0.7372673

bias f4 [24]
000000 24 1d e6 3a d5 13 50 bb 29 9b 5e 3b 2d 40 ce be
       0.0017556292 -0.0031750102 0.0033966994 -0.40283337
000010 ad 57 b2 3d 94 79 57 3f 49 04 e8 3d cc 6e 24 be
       0.08708129 0.8416989 0.11328942 -0.1605789
000020 91 b5 03 3f 5e b3 2f ba ab 90 be 3a 77 46 9b bb
       0.51448923 -0.0006702448 0.0014538964 -0.0047386247
000030 1c 22 7c 3d 8e bc c0 bc 89 96 40 3e 10 bf 0a bd
       0.061555967 -0.02352741 0.18807425 -0.033873618
000040 75 da 17 3e b2 52 6f be da 8b 3b bd 78 77 82 bd
       0.14829428 -0.2337139 -0.04578767 -0.06370443
000050 99 d4 44 3e 6c 61 a9 3c 66 4e bf 3d 5a b3 85 be
       0.19221725 0.020676337 0.09341125 -0.26113397

weight f4 [30, 36]
000000 aa 56 f8 bc ec 65 46 3c 37 b8 2b 3e 0c bd be 3d
       -0.030314762 0.012109261 0.16769491 0.093134016
000010 f8 64 9a bd e6 9d de bd de fb 2c 3d 22 1d bb 3d
       -0.075387895 -0.108699605 0.042232387 0.09136416
000020 11 3f 52 be 44 4d d2 be ee 9f 86 be 14 f0 85 3d
       -0.2053187 -0.41074574 -0.26293892 0.06539932
000030 71 e8 a4 3d 4a 6e 94 bf ad 93 80 be db bb 19 40
       0.08052147 -1.1596158 -0.25112668 2.4020908
000040 17 10 74 bf aa 3e 07 3f c3 fa a3 3e 9e 38 51 bf
       -0.9533705 0.5282999 0.32027254 -0.81727016
000050 e7 3a 44 3e c9 af b4 be 54 98 e3 be 44 6a 0f 40
       0.19163094 -0.35290363 -0.44452155 2.240861
000060 73 79 1f be a5 5a ad bd db 95 0d 3e 5c 00 b0 3f
       -0.15573673 -0.08464555 0.13826697 1.375011
000070 a9 06 21 bf 84 64 7a 3e 72 57 91 3f 6c 54 8b 3e
       -0.6290079 0.24452406 1.1354811 0.27212846
000080 77 e0 1f be dd 8a 8a be 44 fa e7 3d 82 8e 8e be
       -0.1561297 -0.2705907 0.11327031 -0.278431
000090 63 0e cf bd da 8e 19 3e 9c c3 c1 bd 16 6b 12 3e
       -0.10110166 0.149959 -0.09461138 0.14298663
0000a0 b1 6e 37 3e a1 b0 e7 bc 35 4b 1c 3c 16 f6 8e bd
       0.17913319 -0.028282465 0.009539415 -0.06980531
0000b0 79 6b fb bd b7 ad 97 3e b1 0f 5c 3e 58 89 ac 3d
       -0.12276358 0.2962472 0.21490361 0.08424634
0000c0 09 15 6b 3f 69 35 84 3e 27 72 04 3f e5 7b b3 40
       0.9182897 0.25822 0.5173668 5.608874
0000d0 8b e2 e8 bf ef e1 2c 3e d3 f3 77 3f b4 2b e5 bb
       -1.8194135 0.16883062 0.9685642 -0.006993735
0000e0 54 3d 88 3d 85 66 ed bd 9a 7f 61 3f 70 3c a5 be
       0.066523224 -0.1159182 0.8808533 -0.32272673
0000f0 0e 42 92 be d4 c7 55 3e f0 45 dd 3e 6b dd 1f bf
       -0.2856602 0.2087701 0.4321742 -0.6244723
000100 1f 0e c3 3e cc 32 96 bd b8 0c e0 be df b5 46 3e
       0.3809671 -0.073339075 -0.43759704 0.19405316
000110 c4 17 5c 3e 15 07 25 be b5 30 e5 3e 6c 4b 68 3e
       0.21493441 -0.16115983 0.44763723 0.22685021
000120 b0 94 0e 3e 05 c2 ba be af 14 67 be c3 63 10 3e
       0.13923907 -0.3647615 -0.22566484 0.14100556
000130 04 47 2d 3e ec 8c 94 3d ff a4 53 3d f9 5c a4 bd
       0.16921622 0.07253441 0.051671024 -0.080255456
000140 12 fa d3 3d 43 18 bf 3d fd 7f f6 bc 7d da 5b 3d
       0.103504315 0.093307994 -0.030090326 0.053675164
000150 98 41 9f bf a7 f9 ef be 0d 7f 52 3f d0 42 f7 bf
       -1.2441893 -0.46870157 0.82225114 -1.9317265
000160 34 4a d0 bf ce 4c 55 bf c1 d4 fc bf 31 7e 3a bf
       -1.6272645 -0.8332032 -1.9752427 -0.728488
000170 8d 21 04 3f 40 57 67 bc ba 2e 96 bf 19 8e 42 bf
       0.51613694 -0.014119923 -1.173301 -0.75998074
000180 5f 35 00 bf 7b 16 a1 be e6 ab bb bd 14 68 37 be
       -0.5008144 -0.31462464 -0.091636464 -0.17910796
000190 ee e2 48 bf dd b5 40 be 43 63 f3 3c 54 14 50 3d
       -0.7847127 -0.18819375 0.029710418 0.050800636
0001a0 b7 03 1d 3e 34 13 2a 3e b8 21 19 be 93 05 8b be
       0.15333448 0.16608888 -0.14954269 -0.2715269
0001b0 78 fd 5d 3d b0 27 aa 3e 0c 15 88 3e ae 64 42 3e
       0.054196805 0.33233404 0.26578557 0.18983719
0001c0 ca e3 d8 3d 76 6a 01 bd 9e 6c 80 bd 9f dd 42 bd
       0.10590322 -0.03159567 -0.06270717 -0.047574636
0001d0 88 c2 93 bd a8 ef 89 3d 00 e9 bf 3c 5c 50 e6 bc
       -0.07214838 0.06735164 0.023426533 -0.02811449
0001e0 2a 10 b2 be ff bd 8e bd de 11 6b bf a0 47 1a 40
       -0.34777957 -0.06969833 -0.9182414 2.4106216
0001f0 d3 04 a6 3f db 80 a0 3f bc fb 45 be 2f 77 d0 be
       1.2970222 1.2539324 -0.1933431 -0.4071593
000200 e2 65 f4 be 7b 91 a6 3e 30 71 b3 bd e8 d5 fe 3e
       -0.4773398 0.32532868 -0.08761823 0.49772573
000210 72 0d 68 3e d1 d1 94 3e 16 6a 0c be f2 a9 df 3d
       0.22661379 0.29066327 -0.13712344 0.10921086
000220 fc 20 9b be 99 56 0b bf 4a 44 b1 3c a6 bf f5 be
       -0.30298603 -0.5442901 0.021639008 -0.4799778
000230 42 39 05 bf f0 30 9d 3e 9e 31 03 3f d0 eb 0b 3e
       -0.52040493 0.307014 0.51247585 0.13664174
000240 7a 87 54 bd cf 05 d7 3d 5c f4 5a bc 4a 13 4f bd
       -0.051887013 0.10499155 -0.013363924 -0.050555505
000250 3c 4f 88 3d a6 db 07 3d 8f 2b a0 bd 68 6f 86 bd
       0.06655738 0.033168457 -0.07820808 -0.06564218
000260 d1 9a 22 be 45 8e 5e 3e f5 2c 85 3d 90 1f 54 bd
       -0.1587937 0.21733959 0.065027155 -0.051787913
000270 f4 a2 c2 3e 97 25 27 be 31 a2 9b 3e b8 45 b4 3d
       0.38014948 -0.16322933 0.3039718 0.0880236
000280 32 56 7b 3f 18 55 46 3f 64 7a c2 3e 36 9c 33 3f
       0.981784 0.7747359 0.37984002 0.70160234
000290 d2 f2 46 3f 0e 78 13 3f f8 5b 57 3f 07 b3 06 3f
       0.77714264 0.57605064 0.8412471 0.52616924
0002a0 1e a8 1a 3f 8a 06 c3 3d d2 1b 3e 3e 7f bd 8d 3f
       0.60412776 0.095227316 0.185653 1.1073455
0002b0 82 a0 56 3f e3 04 53 be 57 3e 91 3e 94 ef dd 3e
       0.83838665 -0.20607333 0.28367874 0.43346846
0002c0 47 b3 e9 3e 4e 34 d1 3d 25 2f e4 bd 16 2e 3e be
       0.4564459 0.102150545 -0.111418046 -0.18572268
0002d0 85 27 57 bd 0d 21 72 be 7d 93 b9 bd ea 6d 4a 3d
       -0.052527923 -0.2364542 -0.09061334 0.04942123
0002e0 53 d9 0e 3d 9d 06 31 3d 5c 8d ab 3c 01 aa 35 3e
       0.034875225 0.043219198 0.020941429 0.17740633
0002f0 3c a7 84 bd f7 86 74 3d 93 29 00 be df c7 90 3d
       -0.0647721 0.059699025 -0.1251586 0.070693724
000300 b2 03 5d be 04 a2 a6 3e 74 e1 50 bf aa e8 87 c0
       -0.21583441 0.32545483 -0.81594014 -4.2471514
000310 b7 64 c4 be 2b 74 de 3f e1 99 9a bd 89 56 a2 3e
       -0.3835809 1.7379202 -0.07548881 0.31706646
000320 87 f7 3f 3d 00 9f 83 3d fe ee b4 be a7 9b 71 bf
       0.04686692 0.06426811 -0.35338587 -0.9437813
000330 09 cc b2 be ff 24 9c be a5 ad 20 3e 39 14 5b bf
       -0.3492129 -0.30496976 0.1569124 -0.8557773
000340 f4 ab 21 be 89 bb 1c 3d 46 b4 0f bf 88 69 b7 3e
       -0.15788251 0.038264785 -0.5613445 0.358227
000350 67 2e 47 3e 8b 47 c1 be cb 40 30 be 07 19 80 bc
       0.19451295 -0.37749895 -0.17212217 -0.015636934
000360 41 a0 4d 3e e3 41 55 3d 0c 19 6f be 76 df 29 bd
       0.20080663 0.052064788 -0.23349398 -0.041472875
000370 75 20 a5 3d 7f 32 5d bd ad 24 de 3c 4e fc 0e bd
       0.08062831 -0.054003235 0.027117098 -0.034908585
000380 c8 e5 c9 3a 1a 25 da 3d 5a 94 20 3e 2c 61 bf bc
       0.0015403563 0.10651608 0.15681592 -0.023361765
000390 5a cf 0c bf 43 13 58 3d 99 e8 82 3f 82 c8 80 40
       -0.55003893 0.052752744 1.0227233 4.024476
0003a0 60 50 fd 3f fa 99 9e 3f 41 9a f6 3d 3a 95 e9 3b
       1.9790154 1.239074 0.1204114 0.007128385
0003b0 bd e7 eb 3e 59 a1 53 3d fd 22 c8 be 21 82 f4 3e
       0.4607524 0.051667545 -0.39089194 0.4775553
0003c0 5b a5 30 3e d8 fd 5c bd ee 5d 2b 3e 42 bc 08 3f
       0.17250578 -0.05395302 0.1673505 0.5341226
0003d0 5a ec 30 bd 66 54 2e be 11 99 3e 3e b1 07 56 be
       -0.043194152 -0.17024383 0.18613078 -0.20901372
0003e0 22 4d 66 3d 13 8c aa bd 82 c4 a9 bd c6 0c 8e be
       0.056225903 -0.08327498 -0.08289434 -0.2774412
0003f0 96 cb 82 3d 5a d0 84 be 20 cd 11 be 0a 8a f5 3d
       0.06386487 -0.2594021 -0.14238405 0.119892195

bias f4 [30]
000000 18 fc e0 bd f1 08 44 3e d8 4f 51 3e f5 2f 40 bd
       -0.10985583 0.19144036 0.20440614 -0.046920735
000010 fe cc 23 be c9 ac 02 3e 23 4f d7 3d 24 af 3d 3e
       -0.15996167 0.12761225 0.10513141 0.18523842
000020 4d e8 c0 3d 6d 74 21 3c f8 64 05 3e eb aa df bc
       0.09419308 0.009854418 0.13026798 -0.02730318
000030 6a 02 1a 3e 79 f4 e2 bd 42 71 b7 be 8b 3a 28 3e
       0.15039983 -0.11081786 -0.35828596 0.16428582
000040 7e fa 92 bd ff 0f 48 3d 9e ed e1 bc d1 d5 67 be
       -0.07176684 0.04884338 -0.027579125 -0.22640158
000050 87 d0 b0 3d b4 51 b7 bd 28 14 f1 bd 4f 5b 6c 3e
       0.086335234 -0.089511305 -0.117714226 0.23081706
000060 02 31 ba be 74 2d 81 be e4 86 b1 bc 24 b9 8b be
       -0.36365515 -0.2522999 -0.021670766 -0.2728969
000070 40 fd 60 be fa 4e 27 be
       -0.21971607 -0.16338721
